
I0409 21:54:55.379304 25974 net.cpp:137] Memory required for data: 20890800
I0409 21:54:55.379312 25974 layer_factory.hpp:77] Creating layer conv2
I0409 21:54:55.379355 25974 net.cpp:84] Creating Layer conv2
I0409 21:54:55.379360 25974 net.cpp:406] conv2 <- pool1
I0409 21:54:55.379385 25974 net.cpp:380] conv2 -> conv2
I0409 21:54:55.382696 25974 net.cpp:122] Setting up conv2
I0409 21:54:55.382714 25974 net.cpp:129] Top shape: 100 32 16 16 (819200)
I0409 21:54:55.382719 25974 net.cpp:137] Memory required for data: 24167600
I0409 21:54:55.382731 25974 layer_factory.hpp:77] Creating layer relu2
I0409 21:54:55.382740 25974 net.cpp:84] Creating Layer relu2
I0409 21:54:55.382743 25974 net.cpp:406] relu2 <- conv2
I0409 21:54:55.382748 25974 net.cpp:367] relu2 -> conv2 (in-place)
I0409 21:54:55.382916 25974 net.cpp:122] Setting up relu2
I0409 21:54:55.382925 25974 net.cpp:129] Top shape: 100 32 16 16 (819200)
I0409 21:54:55.382938 25974 net.cpp:137] Memory required for data: 27444400
I0409 21:54:55.382942 25974 layer_factory.hpp:77] Creating layer pool2
I0409 21:54:55.382948 25974 net.cpp:84] Creating Layer pool2
I0409 21:54:55.382952 25974 net.cpp:406] pool2 <- conv2
I0409 21:54:55.382963 25974 net.cpp:380] pool2 -> pool2
I0409 21:54:55.383477 25974 net.cpp:122] Setting up pool2
I0409 21:54:55.383487 25974 net.cpp:129] Top shape: 100 32 8 8 (204800)
I0409 21:54:55.383491 25974 net.cpp:137] Memory required for data: 28263600
I0409 21:54:55.383496 25974 layer_factory.hpp:77] Creating layer conv3
I0409 21:54:55.383507 25974 net.cpp:84] Creating Layer conv3
I0409 21:54:55.383512 25974 net.cpp:406] conv3 <- pool2
I0409 21:54:55.383518 25974 net.cpp:380] conv3 -> conv3
I0409 21:54:55.385324 25974 net.cpp:122] Setting up conv3
I0409 21:54:55.385339 25974 net.cpp:129] Top shape: 100 64 8 8 (409600)
I0409 21:54:55.385344 25974 net.cpp:137] Memory required for data: 29902000
I0409 21:54:55.385357 25974 layer_factory.hpp:77] Creating layer relu3
I0409 21:54:55.385365 25974 net.cpp:84] Creating Layer relu3
I0409 21:54:55.385368 25974 net.cpp:406] relu3 <- conv3
I0409 21:54:55.385373 25974 net.cpp:367] relu3 -> conv3 (in-place)
I0409 21:54:55.385748 25974 net.cpp:122] Setting up relu3
I0409 21:54:55.385757 25974 net.cpp:129] Top shape: 100 64 8 8 (409600)
I0409 21:54:55.385761 25974 net.cpp:137] Memory required for data: 31540400
I0409 21:54:55.385764 25974 layer_factory.hpp:77] Creating layer pool3
I0409 21:54:55.385771 25974 net.cpp:84] Creating Layer pool3
I0409 21:54:55.385776 25974 net.cpp:406] pool3 <- conv3
I0409 21:54:55.385781 25974 net.cpp:380] pool3 -> pool3
I0409 21:54:55.386270 25974 net.cpp:122] Setting up pool3
I0409 21:54:55.386281 25974 net.cpp:129] Top shape: 100 64 4 4 (102400)
I0409 21:54:55.386286 25974 net.cpp:137] Memory required for data: 31950000
I0409 21:54:55.386289 25974 layer_factory.hpp:77] Creating layer ip1
I0409 21:54:55.386299 25974 net.cpp:84] Creating Layer ip1
I0409 21:54:55.386303 25974 net.cpp:406] ip1 <- pool3
I0409 21:54:55.386309 25974 net.cpp:380] ip1 -> ip1
I0409 21:54:55.387508 25974 net.cpp:122] Setting up ip1
I0409 21:54:55.387521 25974 net.cpp:129] Top shape: 100 64 (6400)
I0409 21:54:55.387524 25974 net.cpp:137] Memory required for data: 31975600
I0409 21:54:55.387531 25974 layer_factory.hpp:77] Creating layer ip2
I0409 21:54:55.387539 25974 net.cpp:84] Creating Layer ip2
I0409 21:54:55.387544 25974 net.cpp:406] ip2 <- ip1
I0409 21:54:55.387557 25974 net.cpp:380] ip2 -> ip2
I0409 21:54:55.387754 25974 net.cpp:122] Setting up ip2
I0409 21:54:55.387778 25974 net.cpp:129] Top shape: 100 10 (1000)
I0409 21:54:55.387799 25974 net.cpp:137] Memory required for data: 31979600
I0409 21:54:55.387827 25974 layer_factory.hpp:77] Creating layer ip2_ip2_0_split
I0409 21:54:55.387841 25974 net.cpp:84] Creating Layer ip2_ip2_0_split
I0409 21:54:55.387847 25974 net.cpp:406] ip2_ip2_0_split <- ip2
I0409 21:54:55.387856 25974 net.cpp:380] ip2_ip2_0_split -> ip2_ip2_0_split_0
I0409 21:54:55.387869 25974 net.cpp:380] ip2_ip2_0_split -> ip2_ip2_0_split_1
I0409 21:54:55.387959 25974 net.cpp:122] Setting up ip2_ip2_0_split
I0409 21:54:55.387964 25974 net.cpp:129] Top shape: 100 10 (1000)
I0409 21:54:55.387989 25974 net.cpp:129] Top shape: 100 10 (1000)
I0409 21:54:55.387992 25974 net.cpp:137] Memory required for data: 31987600
I0409 21:54:55.387996 25974 layer_factory.hpp:77] Creating layer accuracy
I0409 21:54:55.388016 25974 net.cpp:84] Creating Layer accuracy
I0409 21:54:55.388023 25974 net.cpp:406] accuracy <- ip2_ip2_0_split_0
I0409 21:54:55.388033 25974 net.cpp:406] accuracy <- label_cifar_1_split_0
I0409 21:54:55.388041 25974 net.cpp:380] accuracy -> accuracy
…
I0409 21:58:40.023699 26136 net.cpp:294] The NetState phase (0) differed from the phase (1) specified by a rule in layer accuracy
I0409 21:58:40.023793 26136 net.cpp:51] Initializing net from parameters: 
name: "CIFAR10_quick"
state {
  phase: TRAIN
  level: 0
  stage: ""
}
layer {
  name: "cifar"
  type: "Data"
  top: "data"
  top: "label"
  include {
    phase: TRAIN
  }
  transform_param {
    mean_file: "examples/cifar10/mean.binaryproto"
  }
  data_param {
    source: "examples/cifar10/cifar10_train_lmdb"
    batch_size: 100
    backend: LMDB
  }
}
layer {
  name: "conv1"
  type: "Convolution"
  bottom: "data"
  top: "conv1"
  param {
    lr_mult: 1
  }
  param {
    lr_mult: 2
  }
  convolution_param {
    num_output: 32
    pad: 2
    kernel_size: 5
    stride: 1
    weight_filler {
      type: "gaussian"
      std: 0.0001
    }
    bias_filler {
      type: "constant"
    }
  }
}
layer {
  name: "pool1"
  type: "Pooling"
  bottom: "conv1"
  top: "pool1"
  pooling_param {
    pool: MAX
    kernel_size: 3
    stride: 2
  }
}
layer {
  name: "relu1"
  type: "ReLU"
  bottom: "pool1"
  top: "pool1"
}
layer {
  name: "conv2"
  type: "Convolution"
  bottom: "pool1"
  top: "conv2"
  param {
    lr_mult: 1
  }
  param {
    lr_mult: 2
  }
  convolution_param {
    num_output: 32
    pad: 2
    kernel_size: 5
    stride: 1
    weight_filler {
      type: "gaussian"
      std: 0.01
    }
    bias_filler {
      type: "constant"
    }
  }
}
layer {
  name: "relu2"
  type: "ReLU"
  bottom: "conv2"
  top: "conv2"
}
layer {
  name: "pool2"
  type: "Pooling"
  bottom: "conv2"
  top: "pool2"
  pooling_param {
    pool: AVE
    kernel_size: 3
    stride: 2
  }
}
layer {
  name: "conv3"
  type: "Convolution"
  bottom: "pool2"
  top: "conv3"
  param {
    lr_mult: 1
  }
  param {
    lr_mult: 2
  }
  convolution_param {
    num_output: 64
    pad: 2
    kernel_size: 5
    stride: 1
    weight_filler {
      type: "gaussian"
      std: 0.01
    }
    bias_filler {
      type: "constant"
    }
  }
}
layer {
  name: "relu3"
  type: "ReLU"
  bottom: "conv3"
  top: "conv3"
}
layer {
  name: "pool3"
  type: "Pooling"
  bottom: "conv3"
  top: "pool3"
  pooling_param {
    pool: AVE
    kernel_size: 3
    stride: 2
  }
}
layer {
  name: "ip1"
  type: "InnerProduct"
  bottom: "pool3"
  top: "ip1"
  param {
    lr_mult: 1
  }
  param {
    lr_mult: 2
  }
  inner_product_param {
    num_output: 64
    weight_filler {
      type: "gaussian"
      std: 0.1
    }
    bias_filler {
      type: "constant"
    }
  }
}
layer {
  name: "ip2"
  type: "InnerProduct"
  bottom: "ip1"
  top: "ip2"
  param {
    lr_mult: 1
  }
  param {
    lr_mult: 2
  }
  inner_product_param {
    num_output: 10
    weight_filler {
      type: "gaussian"
      std: 0.1
    }
    bias_filler {
      type: "constant"
    }
  }
}
layer {
  name: "loss"
  type: "SoftmaxWithLoss"
  bottom: "ip2"
  bottom: "label"
  top: "loss"
}
I0409 21:58:40.023914 26136 layer_factory.hpp:77] Creating layer cifar
I0409 21:58:40.024032 26136 db_lmdb.cpp:35] Opened lmdb examples/cifar10/cifar10_train_lmdb
I0409 21:58:40.024061 26136 net.cpp:84] Creating Layer cifar
I0409 21:58:40.024070 26136 net.cpp:380] cifar -> data
I0409 21:58:40.024094 26136 net.cpp:380] cifar -> label
I0409 21:58:40.024108 26136 data_transformer.cpp:25] Loading mean file from: examples/cifar10/mean.binaryproto
I0409 21:58:40.025224 26136 data_layer.cpp:45] output data size: 100,3,32,32
I0409 21:58:40.030339 26136 net.cpp:122] Setting up cifar
I0409 21:58:40.030374 26136 net.cpp:129] Top shape: 100 3 32 32 (307200)
I0409 21:58:40.030380 26136 net.cpp:129] Top shape: 100 (100)
I0409 21:58:40.030383 26136 net.cpp:137] Memory required for data: 1229200
I0409 21:58:40.030396 26136 layer_factory.hpp:77] Creating layer conv1
I0409 21:58:40.030419 26136 net.cpp:84] Creating Layer conv1
I0409 21:58:40.030426 26136 net.cpp:406] conv1 <- data
I0409 21:58:40.030444 26136 net.cpp:380] conv1 -> conv1
I0409 21:58:40.217109 26136 net.cpp:122] Setting up conv1
I0409 21:58:40.217139 26136 net.cpp:129] Top shape: 100 32 32 32 (3276800)
I0409 21:58:40.217144 26136 net.cpp:137] Memory required for data: 14336400
I0409 21:58:40.217218 26136 layer_factory.hpp:77] Creating layer pool1
I0409 21:58:40.217242 26136 net.cpp:84] Creating Layer pool1
I0409 21:58:40.217262 26136 net.cpp:406] pool1 <- conv1
I0409 21:58:40.217269 26136 net.cpp:380] pool1 -> pool1
I0409 21:58:40.217327 26136 net.cpp:122] Setting up pool1
I0409 21:58:40.217334 26136 net.cpp:129] Top shape: 100 32 16 16 (819200)
I0409 21:58:40.217336 26136 net.cpp:137] Memory required for data: 17613200
I0409 21:58:40.217339 26136 layer_factory.hpp:77] Creating layer relu1
I0409 21:58:40.217344 26136 net.cpp:84] Creating Layer relu1
I0409 21:58:40.217346 26136 net.cpp:406] relu1 <- pool1
I0409 21:58:40.217351 26136 net.cpp:367] relu1 -> pool1 (in-place)
I0409 21:58:40.217527 26136 net.cpp:122] Setting up relu1
I0409 21:58:40.217535 26136 net.cpp:129] Top shape: 100 32 16 16 (819200)
I0409 21:58:40.217537 26136 net.cpp:137] Memory required for data: 20890000
I0409 21:58:40.217540 26136 layer_factory.hpp:77] Creating layer conv2
I0409 21:58:40.217552 26136 net.cpp:84] Creating Layer conv2
I0409 21:58:40.217568 26136 net.cpp:406] conv2 <- pool1
I0409 21:58:40.217573 26136 net.cpp:380] conv2 -> conv2
I0409 21:58:40.219678 26136 net.cpp:122] Setting up conv2
I0409 21:58:40.219692 26136 net.cpp:129] Top shape: 100 32 16 16 (819200)
I0409 21:58:40.219696 26136 net.cpp:137] Memory required for data: 24166800
I0409 21:58:40.219704 26136 layer_factory.hpp:77] Creating layer relu2
I0409 21:58:40.219722 26136 net.cpp:84] Creating Layer relu2
I0409 21:58:40.219727 26136 net.cpp:406] relu2 <- conv2
I0409 21:58:40.219730 26136 net.cpp:367] relu2 -> conv2 (in-place)
I0409 21:58:40.220185 26136 net.cpp:122] Setting up relu2
I0409 21:58:40.220194 26136 net.cpp:129] Top shape: 100 32 16 16 (819200)
I0409 21:58:40.220197 26136 net.cpp:137] Memory required for data: 27443600
I0409 21:58:40.220201 26136 layer_factory.hpp:77] Creating layer pool2
I0409 21:58:40.220206 26136 net.cpp:84] Creating Layer pool2
I0409 21:58:40.220209 26136 net.cpp:406] pool2 <- conv2
I0409 21:58:40.220227 26136 net.cpp:380] pool2 -> pool2
I0409 21:58:40.220402 26136 net.cpp:122] Setting up pool2
I0409 21:58:40.220409 26136 net.cpp:129] Top shape: 100 32 8 8 (204800)
I0409 21:58:40.220412 26136 net.cpp:137] Memory required for data: 28262800
I0409 21:58:40.220415 26136 layer_factory.hpp:77] Creating layer conv3
I0409 21:58:40.220422 26136 net.cpp:84] Creating Layer conv3
I0409 21:58:40.220427 26136 net.cpp:406] conv3 <- pool2
I0409 21:58:40.220444 26136 net.cpp:380] conv3 -> conv3
I0409 21:58:40.222129 26136 net.cpp:122] Setting up conv3
I0409 21:58:40.222141 26136 net.cpp:129] Top shape: 100 64 8 8 (409600)
I0409 21:58:40.222143 26136 net.cpp:137] Memory required for data: 29901200
I0409 21:58:40.222151 26136 layer_factory.hpp:77] Creating layer relu3
I0409 21:58:40.222158 26136 net.cpp:84] Creating Layer relu3
I0409 21:58:40.222173 26136 net.cpp:406] relu3 <- conv3
I0409 21:58:40.222178 26136 net.cpp:367] relu3 -> conv3 (in-place)
I0409 21:58:40.222321 26136 net.cpp:122] Setting up relu3
I0409 21:58:40.222327 26136 net.cpp:129] Top shape: 100 64 8 8 (409600)
I0409 21:58:40.222331 26136 net.cpp:137] Memory required for data: 31539600
I0409 21:58:40.222333 26136 layer_factory.hpp:77] Creating layer pool3
I0409 21:58:40.222337 26136 net.cpp:84] Creating Layer pool3
I0409 21:58:40.222362 26136 net.cpp:406] pool3 <- conv3
I0409 21:58:40.222376 26136 net.cpp:380] pool3 -> pool3
I0409 21:58:40.222837 26136 net.cpp:122] Setting up pool3
I0409 21:58:40.222847 26136 net.cpp:129] Top shape: 100 64 4 4 (102400)
I0409 21:58:40.222851 26136 net.cpp:137] Memory required for data: 31949200
I0409 21:58:40.222853 26136 layer_factory.hpp:77] Creating layer ip1
I0409 21:58:40.222875 26136 net.cpp:84] Creating Layer ip1
I0409 21:58:40.222879 26136 net.cpp:406] ip1 <- pool3
I0409 21:58:40.222884 26136 net.cpp:380] ip1 -> ip1
I0409 21:58:40.223636 26136 net.cpp:122] Setting up ip1
I0409 21:58:40.223646 26136 net.cpp:129] Top shape: 100 64 (6400)
I0409 21:58:40.223649 26136 net.cpp:137] Memory required for data: 31974800
I0409 21:58:40.223656 26136 layer_factory.hpp:77] Creating layer ip2
I0409 21:58:40.223664 26136 net.cpp:84] Creating Layer ip2
I0409 21:58:40.223677 26136 net.cpp:406] ip2 <- ip1
I0409 21:58:40.223683 26136 net.cpp:380] ip2 -> ip2
I0409 21:58:40.223785 26136 net.cpp:122] Setting up ip2
I0409 21:58:40.223791 26136 net.cpp:129] Top shape: 100 10 (1000)
I0409 21:58:40.223793 26136 net.cpp:137] Memory required for data: 31978800
I0409 21:58:40.223800 26136 layer_factory.hpp:77] Creating layer loss
I0409 21:58:40.223817 26136 net.cpp:84] Creating Layer loss
I0409 21:58:40.223821 26136 net.cpp:406] loss <- ip2
I0409 21:58:40.223824 26136 net.cpp:406] loss <- label
I0409 21:58:40.223830 26136 net.cpp:380] loss -> loss
I0409 21:58:40.223839 26136 layer_factory.hpp:77] Creating layer loss
…
I0409 21:58:40.224391 26136 solver.cpp:173] Creating test net (#0) specified by net file: examples/cifar10/cifar10_quick_train_test.prototxt
I0409 21:58:40.224418 26136 net.cpp:294] The NetState phase (1) differed from the phase (0) specified by a rule in layer cifar
I0409 21:58:40.224512 26136 net.cpp:51] Initializing net from parameters: 
name: "CIFAR10_quick"
state {
  phase: TEST
}
layer {
  name: "cifar"
  type: "Data"
  top: "data"
  top: "label"
  include {
    phase: TEST
  }
  transform_param {
    mean_file: "examples/cifar10/mean.binaryproto"
  }
  data_param {
    source: "examples/cifar10/cifar10_test_lmdb"
    batch_size: 100
    backend: LMDB
  }
}
layer {
  name: "conv1"
  type: "Convolution"
  bottom: "data"
  top: "conv1"
  param {
    lr_mult: 1
  }
  param {
    lr_mult: 2
  }
  convolution_param {
    num_output: 32
    pad: 2
    kernel_size: 5
    stride: 1
    weight_filler {
      type: "gaussian"
      std: 0.0001
    }
    bias_filler {
      type: "constant"
    }
  }
}
layer {
  name: "pool1"
  type: "Pooling"
  bottom: "conv1"
  top: "pool1"
  pooling_param {
    pool: MAX
    kernel_size: 3
    stride: 2
  }
}
layer {
  name: "relu1"
  type: "ReLU"
  bottom: "pool1"
  top: "pool1"
}
layer {
  name: "conv2"
  type: "Convolution"
  bottom: "pool1"
  top: "conv2"
  param {
    lr_mult: 1
  }
  param {
    lr_mult: 2
  }
  convolution_param {
    num_output: 32
    pad: 2
    kernel_size: 5
    stride: 1
    weight_filler {
      type: "gaussian"
      std: 0.01
    }
    bias_filler {
      type: "constant"
    }
  }
}
layer {
  name: "relu2"
  type: "ReLU"
  bottom: "conv2"
  top: "conv2"
}
layer {
  name: "pool2"
  type: "Pooling"
  bottom: "conv2"
  top: "pool2"
  pooling_param {
    pool: AVE
    kernel_size: 3
    stride: 2
  }
}
layer {
  name: "conv3"
  type: "Convolution"
  bottom: "pool2"
  top: "conv3"
  param {
    lr_mult: 1
  }
  param {
    lr_mult: 2
  }
  convolution_param {
    num_output: 64
    pad: 2
    kernel_size: 5
    stride: 1
    weight_filler {
      type: "gaussian"
      std: 0.01
    }
    bias_filler {
      type: "constant"
    }
  }
}
layer {
  name: "relu3"
  type: "ReLU"
  bottom: "conv3"
  top: "conv3"
}
layer {
  name: "pool3"
  type: "Pooling"
  bottom: "conv3"
  top: "pool3"
  pooling_param {
    pool: AVE
    kernel_size: 3
    stride: 2
  }
}
layer {
  name: "ip1"
  type: "InnerProduct"
  bottom: "pool3"
  top: "ip1"
  param {
    lr_mult: 1
  }
  param {
    lr_mult: 2
  }
  inner_product_param {
    num_output: 64
    weight_filler {
      type: "gaussian"
      std: 0.1
    }
    bias_filler {
      type: "constant"
    }
  }
}
layer {
  name: "ip2"
  type: "InnerProduct"
  bottom: "ip1"
  top: "ip2"
  param {
    lr_mult: 1
  }
  param {
    lr_mult: 2
  }
  inner_product_param {
    num_output: 10
    weight_filler {
      type: "gaussian"
      std: 0.1
    }
    bias_filler {
      type: "constant"
    }
  }
}
layer {
  name: "accuracy"
  type: "Accuracy"
  bottom: "ip2"
  bottom: "label"
  top: "accuracy"
  include {
    phase: TEST
  }
}
layer {
  name: "loss"
  type: "SoftmaxWithLoss"
  bottom: "ip2"
  bottom: "label"
  top: "loss"
}
I0409 21:58:40.224630 26136 layer_factory.hpp:77] Creating layer cifar
I0409 21:58:40.224687 26136 db_lmdb.cpp:35] Opened lmdb examples/cifar10/cifar10_test_lmdb
I0409 21:58:40.224701 26136 net.cpp:84] Creating Layer cifar
I0409 21:58:40.224709 26136 net.cpp:380] cifar -> data
I0409 21:58:40.224716 26136 net.cpp:380] cifar -> label
I0409 21:58:40.224725 26136 data_transformer.cpp:25] Loading mean file from: examples/cifar10/mean.binaryproto
I0409 21:58:40.224864 26136 data_layer.cpp:45] output data size: 100,3,32,32
I0409 21:58:40.232282 26136 net.cpp:122] Setting up cifar
I0409 21:58:40.232424 26136 net.cpp:129] Top shape: 100 3 32 32 (307200)
I0409 21:58:40.232432 26136 net.cpp:129] Top shape: 100 (100)
I0409 21:58:40.232436 26136 net.cpp:137] Memory required for data: 1229200
I0409 21:58:40.232445 26136 layer_factory.hpp:77] Creating layer label_cifar_1_split
I0409 21:58:40.232457 26136 net.cpp:84] Creating Layer label_cifar_1_split
I0409 21:58:40.232475 26136 net.cpp:406] label_cifar_1_split <- label
I0409 21:58:40.232482 26136 net.cpp:380] label_cifar_1_split -> label_cifar_1_split_0
I0409 21:58:40.232492 26136 net.cpp:380] label_cifar_1_split -> label_cifar_1_split_1
I0409 21:58:40.232556 26136 net.cpp:122] Setting up label_cifar_1_split
I0409 21:58:40.232563 26136 net.cpp:129] Top shape: 100 (100)
I0409 21:58:40.232568 26136 net.cpp:129] Top shape: 100 (100)
I0409 21:58:40.232571 26136 net.cpp:137] Memory required for data: 1230000
I0409 21:58:40.232576 26136 layer_factory.hpp:77] Creating layer conv1
I0409 21:58:40.232600 26136 net.cpp:84] Creating Layer conv1
I0409 21:58:40.232606 26136 net.cpp:406] conv1 <- data
I0409 21:58:40.232627 26136 net.cpp:380] conv1 -> conv1
I0409 21:58:40.234566 26136 net.cpp:122] Setting up conv1
I0409 21:58:40.234583 26136 net.cpp:129] Top shape: 100 32 32 32 (3276800)
I0409 21:58:40.234591 26136 net.cpp:137] Memory required for data: 14337200
I0409 21:58:40.234608 26136 layer_factory.hpp:77] Creating layer pool1
I0409 21:58:40.234622 26136 net.cpp:84] Creating Layer pool1
I0409 21:58:40.234628 26136 net.cpp:406] pool1 <- conv1
I0409 21:58:40.234648 26136 net.cpp:380] pool1 -> pool1
I0409 21:58:40.234699 26136 net.cpp:122] Setting up pool1
I0409 21:58:40.234711 26136 net.cpp:129] Top shape: 100 32 16 16 (819200)
I0409 21:58:40.234717 26136 net.cpp:137] Memory required for data: 17614000
I0409 21:58:40.234724 26136 layer_factory.hpp:77] Creating layer relu1
I0409 21:58:40.234737 26136 net.cpp:84] Creating Layer relu1
I0409 21:58:40.234743 26136 net.cpp:406] relu1 <- pool1
I0409 21:58:40.234755 26136 net.cpp:367] relu1 -> pool1 (in-place)
I0409 21:58:40.235332 26136 net.cpp:122] Setting up relu1
I0409 21:58:40.235347 26136 net.cpp:129] Top shape: 100 32 16 16 (819200)
I0409 21:58:40.235357 26136 net.cpp:137] Memory required for data: 20890800
I0409 21:58:40.235363 26136 layer_factory.hpp:77] Creating layer conv2
I0409 21:58:40.235378 26136 net.cpp:84] Creating Layer conv2
I0409 21:58:40.235384 26136 net.cpp:406] conv2 <- pool1
I0409 21:58:40.235397 26136 net.cpp:380] conv2 -> conv2
I0409 21:58:40.237418 26136 net.cpp:122] Setting up conv2
I0409 21:58:40.237444 26136 net.cpp:129] Top shape: 100 32 16 16 (819200)
I0409 21:58:40.237452 26136 net.cpp:137] Memory required for data: 24167600
I0409 21:58:40.237478 26136 layer_factory.hpp:77] Creating layer relu2
I0409 21:58:40.237500 26136 net.cpp:84] Creating Layer relu2
I0409 21:58:40.237506 26136 net.cpp:406] relu2 <- conv2
I0409 21:58:40.237514 26136 net.cpp:367] relu2 -> conv2 (in-place)
I0409 21:58:40.237910 26136 net.cpp:122] Setting up relu2
I0409 21:58:40.237920 26136 net.cpp:129] Top shape: 100 32 16 16 (819200)
I0409 21:58:40.237926 26136 net.cpp:137] Memory required for data: 27444400
I0409 21:58:40.237931 26136 layer_factory.hpp:77] Creating layer pool2
I0409 21:58:40.237941 26136 net.cpp:84] Creating Layer pool2
I0409 21:58:40.237946 26136 net.cpp:406] pool2 <- conv2
I0409 21:58:40.237954 26136 net.cpp:380] pool2 -> pool2
I0409 21:58:40.238498 26136 net.cpp:122] Setting up pool2
I0409 21:58:40.238512 26136 net.cpp:129] Top shape: 100 32 8 8 (204800)
I0409 21:58:40.238517 26136 net.cpp:137] Memory required for data: 28263600
I0409 21:58:40.238526 26136 layer_factory.hpp:77] Creating layer conv3
I0409 21:58:40.238540 26136 net.cpp:84] Creating Layer conv3
I0409 21:58:40.238551 26136 net.cpp:406] conv3 <- pool2
I0409 21:58:40.238561 26136 net.cpp:380] conv3 -> conv3
I0409 21:58:40.240633 26136 net.cpp:122] Setting up conv3
I0409 21:58:40.240648 26136 net.cpp:129] Top shape: 100 64 8 8 (409600)
I0409 21:58:40.240654 26136 net.cpp:137] Memory required for data: 29902000
I0409 21:58:40.240669 26136 layer_factory.hpp:77] Creating layer relu3
I0409 21:58:40.240677 26136 net.cpp:84] Creating Layer relu3
I0409 21:58:40.240682 26136 net.cpp:406] relu3 <- conv3
I0409 21:58:40.240694 26136 net.cpp:367] relu3 -> conv3 (in-place)
I0409 21:58:40.240839 26136 net.cpp:122] Setting up relu3
I0409 21:58:40.240849 26136 net.cpp:129] Top shape: 100 64 8 8 (409600)
I0409 21:58:40.240855 26136 net.cpp:137] Memory required for data: 31540400
I0409 21:58:40.240860 26136 layer_factory.hpp:77] Creating layer pool3
I0409 21:58:40.240869 26136 net.cpp:84] Creating Layer pool3
I0409 21:58:40.240875 26136 net.cpp:406] pool3 <- conv3
I0409 21:58:40.240882 26136 net.cpp:380] pool3 -> pool3
I0409 21:58:40.241377 26136 net.cpp:122] Setting up pool3
I0409 21:58:40.241390 26136 net.cpp:129] Top shape: 100 64 4 4 (102400)
I0409 21:58:40.241396 26136 net.cpp:137] Memory required for data: 31950000
I0409 21:58:40.241401 26136 layer_factory.hpp:77] Creating layer ip1
I0409 21:58:40.241423 26136 net.cpp:84] Creating Layer ip1
I0409 21:58:40.241428 26136 net.cpp:406] ip1 <- pool3
I0409 21:58:40.241446 26136 net.cpp:380] ip1 -> ip1
I0409 21:58:40.242657 26136 net.cpp:122] Setting up ip1
I0409 21:58:40.242669 26136 net.cpp:129] Top shape: 100 64 (6400)
I0409 21:58:40.242683 26136 net.cpp:137] Memory required for data: 31975600
I0409 21:58:40.242689 26136 layer_factory.hpp:77] Creating layer ip2
I0409 21:58:40.242697 26136 net.cpp:84] Creating Layer ip2
I0409 21:58:40.242702 26136 net.cpp:406] ip2 <- ip1
I0409 21:58:40.242713 26136 net.cpp:380] ip2 -> ip2
I0409 21:58:40.242825 26136 net.cpp:122] Setting up ip2
I0409 21:58:40.242830 26136 net.cpp:129] Top shape: 100 10 (1000)
I0409 21:58:40.242843 26136 net.cpp:137] Memory required for data: 31979600
I0409 21:58:40.242853 26136 layer_factory.hpp:77] Creating layer ip2_ip2_0_split
I0409 21:58:40.242869 26136 net.cpp:84] Creating Layer ip2_ip2_0_split
I0409 21:58:40.242873 26136 net.cpp:406] ip2_ip2_0_split <- ip2
I0409 21:58:40.242887 26136 net.cpp:380] ip2_ip2_0_split -> ip2_ip2_0_split_0
I0409 21:58:40.242897 26136 net.cpp:380] ip2_ip2_0_split -> ip2_ip2_0_split_1
I0409 21:58:40.242943 26136 net.cpp:122] Setting up ip2_ip2_0_split
I0409 21:58:40.242950 26136 net.cpp:129] Top shape: 100 10 (1000)
I0409 21:58:40.242956 26136 net.cpp:129] Top shape: 100 10 (1000)
I0409 21:58:40.242961 26136 net.cpp:137] Memory required for data: 31987600
I0409 21:58:40.242966 26136 layer_factory.hpp:77] Creating layer accuracy
I0409 21:58:40.242975 26136 net.cpp:84] Creating Layer accuracy
I0409 21:58:40.242980 26136 net.cpp:406] accuracy <- ip2_ip2_0_split_0
I0409 21:58:40.242986 26136 net.cpp:406] accuracy <- label_cifar_1_split_0
I0409 21:58:40.242995 26136 net.cpp:380] accuracy -> accuracy
…
